Assignment0/mnist_net.pt (torch, 32513 bytes, 2 tensors)

weight f4 [10, 784]
0	0x3c793b16	0.015211841
1	0xbc9b453b	-0.01895391
2	0xbc25b572	-0.010114061
3	0x3c5e6032	0.013572739
4	0xbd16c957	-0.036813106
5	0x3c95530b	0.018228075
6	0xbc2ca69b	-0.010537769
7	0x3c756a79	0.014978998
8	0x3ae8962a	0.0017744948
9	0xbbf7d6ba	-0.007563439
10	0x3bdc0c4b	0.0067153326
11	0xbabb3e4e	-0.0014285536
12	0x3c216b8b	0.0098523
13	0xbc8c2d77	-0.017111523
14	0xbbbde4d8	-0.0057951026
15	0xbbd1e701	-0.0064057116
16	0x3b022a70	0.001986172
17	0xbb5a6f9f	-0.0033330692
18	0x3ce59ed7	0.028029842
19	0x3c01d1a8	0.007923521
20	0xbc871754	-0.016490616
21	0xbccad66d	-0.02476045
22	0xbc1659e8	-0.009176709
23	0xbc98556f	-0.018595425
24	0xbc6fc7bb	-0.014635022
25	0xbac20828	-0.0014803456
26	0x3c944632	0.018099878
27	0x3c84e337	0.016221626
28	0xbd1c11c7	-0.03810289
29	0x3c9b3c3b	0.018949619
30	0x3bde645e	0.006786867
31	0x3cfb6265	0.030686567
32	0x3ca6fa46	0.020383012
33	0xbd125b28	-0.035731465
34	0xbd18349b	-0.037159543
35	0xbca789c7	-0.02045144
36	0x3ce62788	0.028095022
37	0xbc174864	-0.009233568
38	0x3c420d56	0.011844
39	0xbc9a21c6	-0.018814933
40	0x3d0b9fd0	0.034087956
41	0xbc8ec843	-0.017429477
42	0x3cbf25a3	0.023333376
43	0xbb04f028	-0.0020284746
44	0xbca0a79d	-0.019611174
45	0x3c854af3	0.01627109
46	0xbcb6b6ff	-0.022304056
47	0x3beb0964	0.0071727503
48	0xbc5edee4	-0.013602946
49	0xbbea6cf6	-0.0071541024
50	0xbd19c302	-0.03753949
51	0xbca5a1a6	-0.020218682
52	0x3c849f9d	0.01618939
53	0xbc4281cd	-0.011871767
54	0x3d04a3df	0.032382842
55	0x3cd062d9	0.02543776
56	0xbb9f5729	-0.004862685
57	0xbcdd6c18	-0.027029082
58	0x3c980704	0.018558033
59	0x3c026b7f	0.007960199
60	0xbcd712e0	-0.026254117
61	0x3ca3a3cd	0.019975567
62	0x3c92230a	0.017838974
63	0x3ce28f42	0.027656201
64	0xbcc80a64	-0.024419017
65	0xbc3b5eb2	-0.011436151
66	0xbbe01c0d	-0.0068392814
67	0xbaa742e9	-0.001276103
68	0xbd0b0a96	-0.033945642
69	0xbd0d2e5a	-0.034468032
70	0x3bbcd3ee	0.0057625687
71	0xbcc94038	-0.024566755
72	0x3b060228	0.0020448063
73	0xbc45df13	-0.012077111
74	0xb9b9925d	-0.00035395
75	0xbb33e483	-0.0027449436
76	0x3b946eb8	0.0045298003
77	0x3c3fba57	0.011702142
78	0xbd1a20e1	-0.037629012
79	0x3c68c5ad	0.014207286
80	0xbce92c6c	-0.028463565
81	0xbcf6f0d5	-0.030144135
82	0xba857dd0	-0.001018459
83	0xbc17fc11	-0.009276406
84	0x3c91b2d0	0.01778546
85	0xbcc39306	-0.023873817
86	0xbd0f1d86	-0.034940265
87	0x3cbb746e	0.022882666
88	0xbc1465cc	-0.009057473
89	0x3c5b0713	0.013368386
90	0x3b6b90bb	0.003594442
91	0xbd133bc1	-0.035945658
92	0x3840faa2	4.6009787e-05
93	0xbb920a7b	-0.004456816
94	0xbd19c0ba	-0.037537314
95	0xbcea07ec	-0.02856823
96	0xbb451f88	-0.0030078609
97	0xbbba3834	-0.0056829695
98	0xbd0222d0	-0.03177148
99	0xbd0732b4	-0.03300734
100	0x3bb95b97	0.0056566703
101	0xbd2372ec	-0.03990452
102	0xbcd62ad9	-0.026143478
103	0xbced6b31	-0.028981777
104	0xbd684e22	-0.05671514
105	0xbd702d3b	-0.058636885
106	0x3c652839	0.013986641
107	0xbc21a6f7	-0.009866468
108	0x3c925a2a	0.01786526
109	0x3b522654	0.0032066302
110	0x3c04778d	0.008085144
111	0x3cc0672b	0.023486694
112	0x3cfb48e7	0.030674411
113	0xbcdc4902	-0.026890282
114	0x3aa6782d	0.001270061
115	0x3cbfdff7	0.023422224
116	0x3caf2a76	0.021382552
117	0x3c426867	0.011865712
118	0xbd1e3ca9	-0.03863207
119	0xbd1ff42b	-0.039051216
120	0xbd1704ee	-0.036869936
121	0xbc556116	-0.013023635
122	0x3c62cca3	0.0138427345
123	0xbd0bd341	-0.034137014
124	0x3bfef57d	0.0077807293
125	0xbc4eb9a5	-0.012617503
126	0xbcdbc626	-0.026827883
127	0x3b8e6745	0.004345807
128	0x3be9b80f	0.007132537
129	0x3cab5a0b	0.02091696
130	0xbd4f242e	-0.050571613
131	0xbcd0c7a9	-0.02548583
132	0xbb148cdc	-0.0022666967
133	0xbc4deb4e	-0.012568308
134	0xbc0b2884	-0.008493546
135	0x3b181fe4	0.0023212368
136	0x3baa3d93	0.0051953285
137	0x3ab6e0c3	0.0013952482
138	0xbce77674	-0.028254725
139	0xbd07f161	-0.03318918
140	0xbca032b1	-0.019555422
141	0xbbf0d1c4	-0.0073492248
142	0xbccde853	-0.025135195
143	0x3c1ca2d5	0.009560307
144	0x3b7e5d38	0.0038812887
145	0xbcd2e7e4	-0.02574534
146	0xbbe955ae	-0.0071208095
147	0xbc7d2023	-0.0154495565
148	0xbc272bf9	-0.010203355
149	0xbc236159	-0.00997194
150	0xbce0e245	-0.027451644
151	0x3d0a52ad	0.033770252
152	0x3c27dee5	0.010246013
153	0x3d873a04	0.066028625
154	0x3d68471d	0.056708444
155	0x3d8d131c	0.068884104
156	0x3d7604e9	0.060063276
157	0x3d83f187	0.06442552
158	0x3da3d8af	0.080003135
159	0x3c2575fc	0.01009893
160	0xbce14063	-0.027496522
161	0x3c1b190a	0.009466419
162	0xbc18936c	-0.009312492
163	0xbc4bcaf0	-0.012438521
164	0xbd3dedd1	-0.046369378
165	0xbbd09d60	-0.006366417
166	0xbc9b2289	-0.018937366
167	0xbc3fe88e	-0.01171316
168	0xbd01a53e	-0.031651728
169	0xbc9f7b0f	-0.019467859
170	0xbc69fe34	-0.014281798
171	0x3c3850d7	0.0112497425
172	0xbb7a3e2d	-0.0038184032
173	0xbc15d4db	-0.009144987
174	0x3c1ec4b8	0.009690456
175	0x3afce58d	0.0019294486
176	0xbc99d1dc	-0.018776827
177	0xbd328479	-0.043583367
178	0xbd0a9235	-0.03383084
179	0x3d24d459	0.040241573
180	0x3cb45e48	0.022017613
181	0x3d7b3912	0.061333723
182	0x3d2251ce	0.039628796
183	0x3d7ebe90	0.062193453
184	0x3d86450e	0.0655614
185	0x3e01d429	0.12678589
186	0x3d5fd40e	0.05464559
187	0x3ce3b52b	0.027796349
188	0x3d1ffcef	0.039059576
189	0x3d191ba7	0.037379887
190	0x3d49166e	0.049093656
191	0xbcfb2f91	-0.03066233
192	0xbd6d380e	-0.057914786
193	0xbcd62b1a	-0.0261436
194	0x3c646018	0.013938926
195	0xbcf3a528	-0.029741839
196	0x3c5e83be	0.0135812145
197	0x3ca18340	0.019715905
198	0x3cfeea88	0.031117693
199	0xbcf548a7	-0.02994187
200	0xbbc13f00	-0.0058974028
201	0xbd3c563d	-0.04598068
202	0x3bac69dd	0.0052616433
203	0xbd4488bc	-0.047981963
204	0xbce066f8	-0.02739285
205	0xbc769b6c	-0.015051704
206	0x3bd07608	0.0063617267
207	0x3cce9db8	0.02522169
208	0x3d0503cc	0.032474324
209	0x3d3eab20	0.046549916
210	0x3d1aeb59	0.0378221
211	0x3d7596e5	0.059958357
212	0x3d4d05b2	0.05005426
213	0x3e00ad29	0.12566055
214	0x3de39b2c	0.11113581
215	0x3da7cfc9	0.08193929
216	0x3d807977	0.062731676
217	0x3cc8a8fd	0.024494642
218	0x3d45628a	0.048189677
219	0x3d65c906	0.056099914
220	0xbd65a551	-0.05606586
221	0xbb5cbbf0	-0.0033681355
222	0xbd2b95f9	-0.041891072
223	0xbcec6af0	-0.028859586
224	0x3c743da2	0.0149072725
225	0xbcece864	-0.028919406
226	0xbc42650b	-0.011864911
227	0x3ca4a9e6	0.020100545
228	0x3c107b13	0.008818406
229	0x3bf275d5	0.0073993006
230	0xbd08fea4	-0.03344597
231	0xbd7dafb2	-0.061935134
232	0x3b3e4496	0.002903258
233	0xbc3e27d3	-0.0116061745
234	0x3adc744a	0.0016819325
235	0x3c9958bd	0.018719072
236	0xbbc544f3	-0.0060201823
237	0x3d17e170	0.03708023
238	0x3d881fa3	0.06646659
239	0x3d496166	0.049165152
240	0x3dbf60bf	0.09344625
241	0x3de99684	0.11405662
242	0x3ddb4dd1	0.10708202
243	0x3d4e3467	0.050342944
244	0x3ca8443e	0.020540353
245	0x3d1cff99	0.038329694
246	0x3d2380d8	0.039917797
247	0x3d346571	0.044042055
248	0xbceedb15	-0.0291572
249	0xbbf5dc79	-0.007503089
250	0x3c9411fc	0.018074982
251	0xbc84119d	-0.01612168
252	0xbad08df3	-0.0015911445
253	0x3c4f64dc	0.012658324
254	0x3a5a3585	0.0008324015
255	0xbcc507db	-0.024051597

bias f4 [10]
0	0x3d0a9693	0.033835005
1	0xbca1906d	-0.019722188
2	0x3d24aaa4	0.040201798
3	0x3d0013da	0.031268932
4	0xbd3cb005	-0.046066303
5	0x3d290fc1	0.04127479
6	0xb9b39ae8	-0.00034256955
7	0x3b60439a	0.0034219981
8	0xbc650b57	-0.013979754
9	0x3bd8bff8	0.0066146813
